tutorial/my_tutorial/classifier/model.pth (torch, 89871 bytes, 8 tensors)

conv1.weight f4 [10, 1, 5, 5]
000000 b5 5b 08 be c1 24 43 3e a8 f3 5e 3d 56 f1 56 3e
       -0.13316233 0.19056989 0.054431587 0.209905
000010 45 69 17 3e d7 b6 63 3c f1 32 ca 3d 36 1f 94 3d
       0.14786251 0.013898573 0.098729976 0.072325155
000020 ff 62 16 3e 6a 1a a3 3c 32 21 38 bd a9 9d 47 bd
       0.14686202 0.019910056 -0.044953533 -0.04873434
000030 26 45 98 bb 06 8a f0 bc d9 c8 42 3e 02 6e 9c bb
       -0.004646915 -0.02936269 0.1902193 -0.004773856
000040 e3 fb 11 be bf 37 5c be d7 86 0b be 77 d6 0b be
       -0.14256243 -0.2150564 -0.13625656 -0.1365603
000050 e0 18 03 be ca 4e 92 bd 8b 10 1f 3a 6b 1d 84 bb
       -0.12802458 -0.07143934 0.0006067834 -0.004031827
000060 31 37 7f be c4 d2 80 3e c4 3d 6c 3e f6 90 ac 3e
       -0.24923398 0.251608 0.23070437 0.33704346
000070 a3 fd 85 3e d7 9e b9 bd c0 fb c4 bd 0c 1f 79 b9
       0.26170072 -0.090634994 -0.0961833 -0.00023758056
000080 24 b8 8f 3e 34 34 02 3e 6b 2f 69 3e 61 9d ed bd
       0.28070176 0.12715226 0.22771995 -0.11602283
000090 21 ce 0b 3e 12 3f c2 bd f1 c6 4f 3e 10 33 d5 3d
       0.1365285 -0.09484686 0.20290734 0.1041013
0000a0 3e c0 75 be 3b 70 1e bd 76 62 4c be 67 6f 2e ba
       -0.23999116 -0.03868125 -0.19959435 -0.00066541735
0000b0 f6 f2 a0 bc 50 57 42 be 7c 41 ab be e6 24 58 be
       -0.019647103 -0.1897862 -0.33448398 -0.21107826
0000c0 3b d1 84 3c db 55 5c bd e7 d5 92 3e fb 1b 98 3e
       0.01621305 -0.053792816 0.2867882 0.29708847
0000d0 7c b2 18 3e 04 2c 69 3c 40 71 6a 3e f9 8c f3 3d
       0.14911836 0.014231686 0.22894764 0.11892123
0000e0 0f d3 90 bc 3c 6b 97 3e 3e 82 93 3e 7e 2c 96 3e
       -0.017678766 0.29574 0.28810304 0.2933082
0000f0 4e 5f 07 be 5c 54 41 3b 5b 27 a9 3d 8e ca df 3d
       -0.1321995 0.0029499745 0.082594596 0.10927306
000100 2a 60 f2 bd bb 08 40 be 28 2f e7 3d 50 0d d4 bb
       -0.11834748 -0.1875333 0.11288291 -0.0064713135
000110 56 11 ed 3d 4b 6f 1b bb 98 56 10 3c 6a d0 0d 3d
       0.11575572 -0.0023717459 0.008809708 0.034622587
000120 c3 22 ca 3d ba 79 cd 3d 3e 5a 63 be 45 89 fd 3d
       0.098699115 0.10032983 -0.22202393 0.12379698
000130 4b 75 08 be dd 56 1f be c9 7b 16 3b 9b 12 fd bc
       -0.13325994 -0.1556048 0.0022961965 -0.03089266
000140 9a 18 14 3e 68 c3 d1 bd 7f 59 40 be fb ab 0e 3e
       0.1446251 -0.10242349 -0.1878414 0.13932793
000150 d8 21 fd bc c3 2f 1d 3e 68 86 cb 3d aa ab 08 be
       -0.030899927 0.15350251 0.09937745 -0.13346735
000160 13 1a a9 3d 92 63 b2 3d d9 6c b6 bd e5 e9 0b bd
       0.082569264 0.08710398 -0.0890748 -0.034158606
000170 5a da 1a 3e d1 c5 16 3e 5c 43 11 3c b2 f6 92 bb
       0.15122357 0.14723898 0.008866157 -0.004484975
000180 b0 da 87 3e 13 48 66 3d d1 ca 6d 3e 7d 77 3f 3e
       0.26534033 0.05622108 0.232219 0.18697925
000190 f6 97 e5 bd 1c f1 df bd 72 ea 9f 3e 4d fe 1b 3e
       -0.11210625 -0.1093466 0.31233555 0.15233727
0001a0 8e c4 65 3e d9 6f 0a 3e 77 67 51 3e 04 6b af 3e
       0.22438261 0.13519229 0.20449625 0.34261334
0001b0 bc 7e c1 3e 04 c1 a0 bc 91 fc c7 3d 3f c0 66 3e
       0.37792003 -0.019623287 0.0976497 0.22534274
0001c0 86 dd 7f 3e 93 ad 77 3e 52 47 81 bd aa 4f 36 be
       0.24986848 0.24187307 -0.063124314 -0.17803827
0001d0 9e c5 1f be e2 89 18 3d 7c 74 84 3e 04 fa 78 bd
       -0.15602729 0.03724087 0.2587012 -0.06078531
0001e0 4d 08 8c ba ab ca 34 be c8 61 44 be 74 90 49 bc
       -0.0010683626 -0.17655437 -0.19177926 -0.012302507
0001f0 70 bb 2d 3e 49 b9 7c 3e 20 1d 20 bd d4 4d 1b 3e
       0.16966033 0.24680056 -0.039090276 0.15166408
000200 bf f0 86 3e 75 1e 0c 3e 43 74 36 3e 6a 1e 71 3e
       0.2635555 0.13683493 0.17817788 0.23546758
000210 cb 91 7b 3e 3b d6 0e 3e db bc 0a be f2 58 2c be
       0.24567334 0.1394891 -0.13548605 -0.16830805
000220 23 f5 45 bd 22 9a 89 3d 12 57 07 bd 4f e1 f4 3d
       -0.048329484 0.067188516 -0.03304202 0.11957037
000230 33 d2 40 3d 73 b8 86 bc 6c ac 35 3e d6 41 3f 3e
       0.04707546 -0.016445374 0.17741555 0.18677458
000240 01 4d 6b 3e 24 e2 e1 3d be ea 6a bd 16 5a 87 3e
       0.22978593 0.11029461 -0.057352774 0.26435918
000250 f2 96 95 3d fd 83 9e 3d 49 d6 84 be 1c e6 43 be
       0.07304181 0.077400185 -0.25944737 -0.19130749
000260 ba 29 f9 bd 4e 11 c8 3c fa f1 93 3e 4e 7e 31 be
       -0.12166162 0.024422314 0.2889555 -0.17333338
000270 e3 30 55 be c8 d3 e8 3d fb 57 5f 3e a7 09 92 3e
       -0.2081943 0.11368519 0.21810906 0.2852299
000280 e6 39 61 be d0 bc 9d 3b 04 a8 24 3d c9 cf 37 3e
       -0.21994743 0.004813768 0.040199295 0.17950357
000290 3c 25 63 3c bc 0a 2f be 96 62 b5 bc 14 db 84 3e
       0.013863858 -0.17093939 -0.022141736 0.25948393
0002a0 34 5b 87 3e 84 5a 3a 3e 40 9d 6b 3e b4 f3 97 3e
       0.2643677 0.18198591 0.23009205 0.29678118
0002b0 be 0a 96 3e 20 ca 1d 3e f3 b0 a1 bd 55 dd fb 3d
       0.2930507 0.15409136 -0.078950785 0.12298075
0002c0 f0 5c be bd d1 a9 43 bd 15 20 52 be 49 35 aa bd
       -0.0929507 -0.04776937 -0.20520051 -0.083109446
0002d0 d5 13 1c be 54 6f 0d 3e f9 54 59 be 82 f9 4e be
       -0.1524194 0.13812 -0.21223821 -0.20212367
0002e0 1e 8e 53 bd 23 59 e4 bd d6 f4 57 3d fd 48 ba bd
       -0.051649205 -0.11149814 0.052723728 -0.09095953
0002f0 5a 81 d4 bd 66 b2 b1 3c 83 03 30 3e 19 06 e6 bd
       -0.10376234 0.021691512 0.1718884 -0.11231632
000300 98 2e 19 3e d7 5e 5a 3e 19 f3 8f 3e f6 c0 b7 bd
       0.1495918 0.21325241 0.28115156 -0.08972351
000310 7b 13 fa 3d d9 37 51 bd db df 8c 3e ce 9f 4a ba
       0.12210747 -0.05107865 0.27514538 -0.0007729501
000320 66 4e 3d 3e a1 38 fb 3d 0e 16 1c 3d 7c 99 8b bd
       0.18486938 0.122666605 0.03810697 -0.06816384
000330 e0 3b b2 bd 1b 21 47 3e 64 8c 26 3e 39 e3 c0 3d
       -0.087028265 0.19446222 0.16264492 0.09418339
000340 21 0c 88 be 1c 76 02 3d 15 c8 a3 3e 8b f3 a1 3e
       -0.26571754 0.03185092 0.31988588 0.3163112
000350 0e 0d 31 3e c8 96 53 be e8 9f 18 be 74 e0 9c 3e
       0.17290136 -0.20662987 -0.1490475 0.30639994
000360 83 26 d7 bc 3b 82 70 3e bb de 2c be d7 c8 29 be
       -0.026263481 0.23487179 -0.1688184 -0.1658052
000370 66 c7 45 3e ec f0 37 bd 70 ca a6 3b 87 f2 19 3e
       0.19314346 -0.044907495 0.0050900504 0.15033923
000380 2d a9 21 3e 6d db 55 3e 11 6e b9 3b 6c 5a ba bd
       0.15787192 0.20884486 0.005658873 -0.09099278
000390 f9 6a 88 3e b7 1c 9b 3c eb 2c 6b bd cd 7b b3 3d
       0.26644114 0.01893459 -0.057415884 0.087638475
0003a0 b1 6f e5 bd ed 9e 1b 3e 6f 65 2b 3e 3c 36 26 be
       -0.11202944 0.15197344 0.16737913 -0.16231626
0003b0 20 dc 36 be 70 68 55 bd 0a 6d 13 3d f5 a0 31 bc
       -0.17857409 -0.052101552 0.03599266 -0.010841598
0003c0 29 10 01 be 13 fb 41 bd 50 ea 7f be a6 e2 51 be
       -0.12603821 -0.047358584 -0.24991727 -0.20496616
0003d0 8a 32 30 be 60 99 11 3e 35 a8 06 3e aa 16 e1 bd
       -0.17206779 0.14218664 0.13150103 -0.10990651
0003e0 f3 53 42 bd 71 56 cd 3c
       -0.04744334 0.025065633

conv1.bias f4 [10]
000000 30 64 39 3d 36 7f 57 bd dd 96 3f 3e 17 4a 13 3e
       0.045261562 -0.052611552 0.18709894 0.14383732
000010 41 e3 8f 3d 4a 96 ee 3c 29 39 55 3e f1 44 5d 3e
       0.07025767 0.029124398 0.20822586 0.2160833
000020 50 9d a7 bd 09 7a 3d 3e
       -0.08184302 0.18503584

conv2.weight f4 [20, 10, 5, 5]
000000 17 d3 d8 3c 7d 7e 15 bd a0 94 21 3d 0b 38 23 bd
       0.026467843 -0.03649758 0.03944838 -0.03984837
000010 df bf 59 3d 96 15 2c bd 3d f3 3c 3b 2c b2 5d bb
       0.0531615 -0.042012773 0.0028831505 -0.0033828123
000020 9f 71 fd 3b ae c4 2f 3d 62 c6 14 bd 8f b0 5c bd
       0.007734492 0.042912178 -0.036322005 -0.053879317
000030 9b 08 ab bd 72 de b9 bb 70 7b 00 bd d2 5c 80 bc
       -0.08351251 -0.0056722695 -0.03136772 -0.01566926
000040 65 dc 22 bd e0 51 45 3a 5a ff 11 3d 1c 7b 78 bc
       -0.039760966 0.0007527154 0.035643913 -0.01516607
000050 c8 f6 38 bd 1d 8e 75 bd f1 6f 7a bd 1d 99 2a 3d
       -0.045157224 -0.059949983 -0.061141912 0.041649926
000060 10 56 2d bd c1 8c 27 3d 91 9a 8a 3c d2 14 b4 bc
       -0.042318404 0.040905718 0.016919406 -0.021982584
000070 99 4e 7c 3d 07 9b 09 3d d3 15 09 3c e2 32 7a bd
       0.061598394 0.03359511 0.00836702 -0.061083682
000080 59 d2 85 bd ed 5b 0a bd 86 59 81 bd 22 61 5c bd
       -0.06534261 -0.033779074 -0.06315903 -0.05380357
000090 31 28 56 bd 94 9f 97 bd 98 2c 14 bd da fb 53 bd
       -0.052284423 -0.07403484 -0.03617534 -0.051753856
0000a0 7c fb 3b bd 58 f6 a0 bd 4f c2 c5 bd e7 dd 4d 3c
       -0.04589413 -0.07859486 -0.09656202 0.012565113
0000b0 47 46 83 bd c0 77 32 3c 29 fa 98 bd 56 3e 23 bd
       -0.06409889 0.010892808 -0.07469589 -0.03985437
0000c0 83 d6 5d bd f0 39 a2 bd 77 df b2 3d ac e0 30 bd
       -0.054159652 -0.07921207 0.08734029 -0.043183014
0000d0 4a 70 a9 bc d1 0d 41 3d 1f a5 71 3d 5a c6 0d 3d
       -0.020683426 0.047132317 0.058995362 0.03461299
0000e0 aa 84 3f bd 5c 9f 61 bd 1d 1e f3 3b 3b 5c eb 3b
       -0.046757378 -0.055083618 0.0074193613 0.0071826256
0000f0 38 16 7d 3c 80 0d 97 bd 0a b0 4d bd 18 4d 84 3d
       0.015447192 -0.07375622 -0.050216712 0.06460017
000100 1a b1 55 bd 7c fc 08 bd 0e 86 0b bc 1c fa 2b 3d
       -0.05217085 -0.033443913 -0.008515848 0.04198657
000110 46 b9 a7 3d 78 99 d4 bd dd b0 c7 bc ea 84 66 bd
       0.08189635 -0.10380834 -0.024376327 -0.0562791
000120 36 eb f6 bc dc eb f9 bc 6c 7c 11 bd 33 24 18 3b
       -0.030141454 -0.030507974 -0.03551905 0.0023214936
000130 eb 69 5f bd 5b 38 a0 bd 10 63 5a bd 23 ea a0 3d
       -0.05454437 -0.07823249 -0.05331713 0.07857158
000140 e8 07 b7 bc 50 4d 1e bd 28 44 c9 bc a7 99 d0 bb
       -0.022342637 -0.03864795 -0.024568632 -0.006365973
000150 91 59 8a bd 18 33 56 bd 6c 67 ba 3c 29 73 21 3d
       -0.06755365 -0.05229482 0.022754394 0.039416466
000160 65 25 df ba 11 63 a7 bd 68 45 f1 3c 89 7a 1d 3d
       -0.0017024694 -0.08173192 0.02945204 0.038446937
000170 65 c1 b8 3d 81 a5 38 3c 98 6d 2b bb 8c ba b6 3b
       0.09021262 0.011269928 -0.0026157852 0.0055764373
000180 25 43 01 bd 33 bd 5f bd a2 4b f3 3b 31 37 aa bc
       -0.031558175 -0.054623794 0.0074247876 -0.02077827
000190 74 64 5d 3d 66 62 6e 3b 1a dd 7c bd 76 51 18 bd
       0.054050878 0.0036374568 -0.061734296 -0.037187062
0001a0 8a 9b 44 bc 87 42 4f bc 10 c7 d6 bd a7 a8 5f bd
       -0.011999974 -0.012650139 -0.10487187 -0.0546042
0001b0 87 93 0c bd 9d f3 4e bc d4 17 5b 39 10 c2 64 bd
       -0.03432038 -0.012631324 0.00020894344 -0.055849135
0001c0 fb c8 84 bd 54 36 ad 3d ac c8 03 3d 98 d1 19 bd
       -0.064836465 0.08457628 0.032173797 -0.0375534
0001d0 51 cd a8 bd 6d c1 22 bd 69 48 c8 3d 44 a0 be bd
       -0.08242286 -0.039735246 0.09779436 -0.09307912
0001e0 50 2c b3 bd f3 74 46 bc 02 07 64 3d 46 82 8a 3d
       -0.08748686 -0.012112844 0.055670746 0.06763129
0001f0 29 f0 c9 bd 7c 6f 89 3b c5 fe 8b 3b cb c1 03 3d
       -0.0986026 0.004194198 0.0042723143 0.032167237
000200 5c 73 a7 3c 67 99 83 bc d0 d5 64 3d 45 53 3b bd
       0.02044075 -0.016064359 0.05586797 -0.04573371
000210 4f f1 91 bb b9 51 af 3b f0 61 41 3d af 1c 1a 3c
       -0.004453815 0.0053503183 0.04721254 0.009406253
000220 af 7f c6 bd 07 19 7c 3c d9 b0 3e 3c 8f b8 98 bd
       -0.096923225 0.015386826 0.011638843 -0.07457077
000230 d7 53 29 bd 14 05 da bd dd 49 bc bc b6 ad 45 bb
       -0.04133972 -0.106455 -0.02298444 -0.0030163354
000240 48 2b 17 bc b5 5c e9 bc 07 76 37 bd cb 64 4c 3d
       -0.009226628 -0.028486589 -0.044790294 0.04990081
000250 06 4e 7e 3d ff fb c0 bd d5 29 16 3d ea fa 59 3b
       0.062086128 -0.094230644 0.036660988 0.0033261129
000260 91 3d d1 bd 7c ee 02 3d 83 30 50 bc 73 fa 51 bc
       -0.10216821 0.031965718 -0.012706879 -0.012816059
000270 00 3b b7 bd 33 90 02 3d 29 c7 c5 3d 23 ed fe 3d
       -0.089468 0.0318758 0.096571274 0.12447574
000280 62 b4 82 ba 82 15 b1 bb f7 d0 b3 3c 0e 17 96 3d
       -0.0009971971 -0.0054041753 0.021950228 0.07328616
000290 4b cf 9f 3c 33 cf e5 bc 0f 1c 97 bc 68 f3 53 3d
       0.019508025 -0.028052902 -0.018445997 0.051745802
0002a0 a8 e4 a6 3d 13 13 23 bd 16 ff 5f 3c 04 e8 d1 bc
       0.081490815 -0.039813112 0.013671657 -0.025623329
0002b0 49 77 d1 3d 6d 78 e2 3b ec 8f 54 bd ad 24 23 3d
       0.1022783 0.0069113285 -0.051895067 0.0398299
0002c0 f7 fc 92 bd 4f c9 10 3d 25 35 47 bd d9 a6 5b 3d
       -0.071771555 0.035348233 -0.048634667 0.053625915
0002d0 7c e6 c5 b9 2c 37 a7 3c e5 43 a4 bb 27 fa 9b 3d
       -0.00037746492 0.02041205 -0.0050129765 0.07616072
0002e0 ec 71 2e bd ea 71 86 bd 50 e0 c3 3c 22 0b 9f 3d
       -0.042589113 -0.06564696 0.023910671 0.07765795
0002f0 c5 0f 84 3d 37 b8 39 bd cc 06 52 3d 1c 9b 40 3d
       0.0644832 -0.045341697 0.051276013 0.047022924
000300 b9 16 7c bc 02 3f 8f bd db 59 ba 3c 68 e3 b4 bc
       -0.015386277 -0.0699444 0.022747925 -0.022081092
000310 d6 32 0f 3d 6a 37 9e bd 9a e2 61 3c f2 19 88 3c
       0.03496059 -0.07725413 0.013786936 0.016613934
000320 12 5b c2 3c 5f 92 4b 3d 8e 40 7f bd 9c 46 23 bd
       0.023725066 0.049700137 -0.062317424 -0.03986226
000330 52 eb ae bb 3d a5 c6 bb 35 62 02 bc 2b 1c 99 bd
       -0.005338111 -0.0060621784 -0.007957985 -0.07476076
000340 28 df 08 b8 5f d0 89 3d 77 8a bb 3d bb 35 1c 3d
       -3.2632757e-05 0.06729197 0.091572694 0.03813718
000350 6c 60 ec bd cf a3 12 3c 06 d1 ac 3d 4f 12 38 bc
       -0.115418285 0.008950188 0.084383056 -0.011234834
000360 e8 dc be ba fe 23 9d bd 76 9e 60 3d 74 7a d7 3d
       -0.0014561685 -0.076728806 0.05483862 0.10521403
000370 a0 17 b4 3d 3e ea 48 bd a8 f9 80 bd c6 59 ea 3d
       0.087935686 -0.049051516 -0.06297618 0.11442904
000380 f8 31 c4 3d f4 86 44 3d 22 6c 1e 3d fd 3f e1 bb
       0.09579843 0.047980264 0.038677342 -0.006874083
000390 0e 2c 27 3d 98 9f 6f bd 3c d0 37 3c 9f ac bc 3c
       0.0408135 -0.05850181 0.011219081 0.02303153
0003a0 70 f9 f0 3c 22 ca 29 bd fe 83 4e bd ec 37 7f 3c
       0.029415816 -0.041452534 -0.050418846 0.015577298
0003b0 0e c0 89 bd 09 f2 a3 bd 86 3c 8d bd 36 d1 24 bd
       -0.06726085 -0.08005149 -0.068963096 -0.04023858
0003c0 a0 a6 a0 bc 0b 7e 50 bd e4 4e 1e bd 40 51 af bd
       -0.019610703 -0.050901454 -0.038649455 -0.08560419
0003d0 79 3b 61 3c 6a c0 06 bd 98 b6 76 bd ee 7a 90 3c
       0.01374709 -0.032898344 -0.06023273 0.017636742
0003e0 d3 24 8e bd bd 04 f1 3c bd 86 92 3c 06 a9 a5 bd
       -0.069406174 0.029421205 0.017886514 -0.08088879
0003f0 fa f9 75 bd 90 72 38 bd ea d2 fa bc 4c bc e6 bc
       -0.06005285 -0.04503113 -0.03061815 -0.028165959

conv2.bias f4 [20]
000000 98 aa 81 3c 57 4d 47 bd 3c 0f 83 bc 0f 4c 14 bd
       0.015828416 -0.04865774 -0.015998475 -0.036205348
000010 5d af 48 bd c9 ec 32 bc f7 a1 89 3c e6 48 40 bd
       -0.048995364 -0.010920712 0.016800864 -0.04694452
000020 ca 5d 7b bd 67 d3 2f 3d e8 ee e9 bc 37 a7 60 bd
       -0.06136874 0.04292622 -0.028556302 -0.05484697
000030 64 51 aa bc 64 c0 8a bc 7f 4c 4f bd 5d ab 22 3c
       -0.020790763 -0.016937442 -0.05061006 0.0099285515
000040 d2 b9 27 bd 5a 63 ae bc 7b 7e b8 3c 7f a0 05 3c
       -0.040948696 -0.021287609 0.022521248 0.008155941

fc1.weight f4 [50, 320]
000000 f6 85 18 3d 55 57 15 bd fd 2f ab 3d a5 1f 2d 3d
       0.03723713 -0.03646024 0.083587624 0.042266507
000010 1f 47 3d bd 12 af 1e 3c 68 0d 63 3d b8 7b a1 3a
       -0.046210404 0.009685295 0.055432707 0.0012320196
000020 18 f4 db bc 99 dd 47 bc a9 48 64 bb d9 94 a9 bc
       -0.026849791 -0.012198829 -0.0034833348 -0.020700859
000030 98 9a 29 bc dc 58 82 3d ff e8 d7 bb 33 89 24 3d
       -0.010351799 0.06364605 -0.0065890546 0.040169906
000040 d2 34 6b bb e6 c0 70 bd 02 4a b6 3c 6c 10 04 3b
       -0.0035889638 -0.058777712 0.022252087 0.002015139
000050 92 99 ca 3c 9a bf 4b bd 65 13 6f 3d b3 22 4c 3d
       0.024731431 -0.049743272 0.058368105 0.04983778
000060 ec 27 fa 3c 81 8d dc bc 29 3c 62 3d c3 f3 5c 3d
       0.030536614 -0.026922943 0.055233154 0.053943407
000070 d9 eb 2c bd f8 41 db bc 3d 7e 0a bd 39 75 72 bd
       -0.04221711 -0.026764855 -0.033811796 -0.059193823
000080 90 d3 35 3d 8d b3 a0 3c 8f 03 ca bc da 46 62 3c
       0.044391215 0.019616866 -0.0246599 0.013810838
000090 ad 25 87 3c 45 4a 80 3c b8 f9 54 bd 8f 16 ab bc
       0.016497457 0.015660414 -0.051995963 -0.02088478
0000a0 da c8 ac bc 9b b5 2c bc 75 7d 89 3d 15 5c 77 3b
       -0.021091867 -0.010541345 0.06713382 0.0037744094
0000b0 4f 59 41 bd 9e b3 4c 3c 13 ce 0b 3d 32 ae cb 3c
       -0.047204312 0.012493996 0.034132075 0.024863336
0000c0 19 80 bc bc 75 70 e4 3c 2b d3 df bc b5 99 f9 3c
       -0.0230103 0.027885655 -0.027322372 0.030468801
0000d0 4c 3f 81 bc e8 79 36 bc c0 d8 38 bd 28 f2 8a bb
       -0.015777253 -0.011137463 -0.045128584 -0.004240293
0000e0 86 f7 68 bd 59 16 ab 3c a0 a4 57 3d 3e 25 43 bd
       -0.05687668 0.02088468 0.052647233 -0.04764294
0000f0 ae 8a ed 3c 15 b2 c8 3d f4 1f 7c 3d 3b f8 9b bc
       0.028996792 0.097995915 0.06155391 -0.019039264
000100 6a 4a 3d bd 0d 12 f4 bc 76 c3 16 bd e3 45 09 bc
       -0.046213545 -0.029793764 -0.0368075 -0.008378479
000110 96 e0 5e bd 6e e2 b4 bc ff 6a c3 bb 67 fd 33 bb
       -0.0544134 -0.022080626 -0.0059636827 -0.0027464272
000120 72 96 7c 39 4d 6f 50 3d f5 63 d4 bc 3d da 63 bd
       0.00024088638 0.050887395 -0.02592657 -0.05562805
000130 bc a5 eb bb f9 80 ee 3d b4 a1 eb 3c 98 38 95 bd
       -0.007191388 0.11645693 0.02876363 -0.07286185
000140 32 4d 53 bd 2f 16 a6 bb 5b b1 fa bc 71 10 b6 3c
       -0.05158729 -0.0050685625 -0.030602148 0.022224637
000150 49 31 2d bc 36 25 67 3c 1c 46 0e bc 39 63 06 bd
       -0.0105708325 0.014107993 -0.008683708 -0.03280947
000160 ca 75 24 3d cb c4 af 3d 52 a5 7e 3d 50 8e 2d bd
       0.040151395 0.08582457 0.06216938 -0.042372048
000170 79 96 b9 bb 7c a8 f7 3c 02 6b 6d bd ce 6b a3 bd
       -0.0056636897 0.030231707 -0.05796338 -0.079795465
000180 6b 4e 17 3d fa bd 8b bb b0 c0 f2 ba 95 a0 4a 3d
       0.03694002 -0.0042645903 -0.001852056 0.04946955
000190 50 27 88 39 66 88 2d bd d6 a6 30 3d 22 dd 23 3d
       0.00025969232 -0.042366408 0.043127857 0.04000581
0001a0 1e 81 71 3d 26 a1 8f 3c 2f 67 c5 bb f9 fd 03 3d
       0.058961026 0.017532896 -0.0060242633 0.03222463
0001b0 fa 66 74 3d f7 4f 36 bb 4b 11 66 3d 05 f9 fc 3c
       0.05966852 -0.002781866 0.056168836 0.03088046
0001c0 86 66 40 3c 2a 63 c7 bc 39 a7 01 bb ef 68 83 3d
       0.0117431935 -0.024339277 -0.001978351 0.06416499
0001d0 cd 67 1e 3d 2e b9 63 3d b2 1f c7 b7 c4 bb b9 3c
       0.03867321 0.055596523 -2.3737408e-05 0.022672541
0001e0 b3 e5 8f bb 6e 91 a9 bb 7e d9 c5 3c 66 67 4f 3c
       -0.004391396 -0.0051748073 0.02415156 0.012658929
0001f0 05 fc d6 bd 6f 66 66 bd 24 a4 f9 3c e3 ec 81 bd
       -0.10497288 -0.056250032 0.030473776 -0.06344011
000200 37 9b 2f 3d 71 dc 29 3d f3 fa fd 3c 0f 34 f4 3c
       0.042872634 0.041469995 0.031003451 0.02980998
000210 69 da 38 3d 61 32 24 bd 15 18 98 bc 1f 9b 26 3d
       0.045130167 -0.040087108 -0.01856617 0.04067528
000220 b6 cc 4b bc 9a 71 81 3c fc 53 9d bc d2 6c 13 bb
       -0.012438944 0.01580124 -0.019205086 -0.0022495282
000230 7a 2c 97 bc af a0 37 bc 6e 9b 4e 3c 67 33 58 3d
       -0.018453825 -0.011207744 0.0126102995 0.052783396
000240 a5 95 97 3b 7e 65 4c bc db 64 66 3d b6 2c af bc
       0.0046259933 -0.0124753695 0.056248527 -0.021383625
000250 2f a8 00 bc 11 bd 9a 3b 24 22 82 3c b2 4a 88 3c
       -0.007852598 0.0047222455 0.01588542 0.01663718
000260 d1 22 fd bc 90 96 ec bc 56 17 cc ba 50 db 94 bb
       -0.03090039 -0.028880388 -0.001557092 -0.0045427456
000270 7c 5f 54 bc 2d a3 34 3d d1 8e b6 bc 0b eb 0e bc
       -0.012962218 0.04410093 -0.022284897 -0.008723031
000280 35 3a 08 bd 94 96 a5 3c 6b a8 4f 3d b7 0e a6 bc
       -0.033258636 0.020213403 0.050697725 -0.020270688
000290 95 0a 58 bd 4a 4f 3c 3d 21 87 f9 bc 07 ee 14 3d
       -0.052744467 0.045974053 -0.030459942 0.036359813
0002a0 a2 46 7f 3d 57 f7 f0 bb 64 b4 a9 3a cf 52 c1 bc
       0.06232322 -0.007353704 0.0012947437 -0.023599057
0002b0 15 d6 51 3d 04 07 0e bd 05 de 59 3b bc 7a 11 bd
       0.051229555 -0.03467466 0.0033243906 -0.03551744
0002c0 da f2 ab 3c 0b 97 ed 3c 8a 85 82 3d 88 94 ec bb
       0.020989824 0.029002687 0.06373127 -0.0072198547
0002d0 53 89 f2 3c 6b 42 fc bc 7c 72 2c 3d bb 5d d6 bc
       0.029606497 -0.03079339 0.04210137 -0.026167741
0002e0 be 3a ef bc 12 0c 62 bc b0 df 2e bd 7b 59 11 bd
       -0.029202815 -0.013796823 -0.042693794 -0.035485726
0002f0 be b3 2a bd 53 87 50 bb d6 87 f4 bc f6 77 4a bd
       -0.04167532 -0.003181894 -0.029849928 -0.04943081
000300 ac 8a 0d 3c 34 d2 33 3d c8 3b a3 3c 92 9f 5e 3c
       0.008639019 0.043901637 0.019925967 0.013587849
000310 bb cb 82 3b 57 80 20 bd d2 07 3f bc 8d 82 a6 bc
       0.0039915717 -0.039184894 -0.011659579 -0.020325923
000320 7d 16 0e 3d e1 b1 12 3c ac 01 01 3d 57 dc e7 bc
       0.034689415 0.008953542 0.031495735 -0.028303308
000330 1f a5 93 bd d8 75 07 3c 8e 4e 2d 3d 94 51 d4 3c
       -0.07209229 0.008267842 0.042311244 0.025917806
000340 d3 b4 55 3d fd ca 51 bd 95 d6 ca 3c f2 90 17 3d
       0.0521744 -0.051218975 0.024760524 0.037003465
000350 fc 91 41 bd 72 b6 cc 3c db 5e c1 3c b5 27 c3 bb
       -0.047258362 0.02498934 0.0236048 -0.005955661
000360 4c ff 30 bd fd 3a b1 3c fc 4b 2f 3d 31 da 2c bc
       -0.04321222 0.021634573 0.042797074 -0.010550068
000370 0b 8d 25 3d 0d 93 3c 3d 04 a0 12 bd 61 18 54 bd
       0.040417712 0.046038676 -0.035797134 -0.051781062
000380 d2 d1 f4 3c f5 ba 78 3c f2 b6 18 3c 46 08 c5 bc
       0.029885206 0.015181293 0.009320961 -0.024051797
000390 8d fd 2f bd 1a 10 1e 3c 1b 6f 94 bb 35 dc 4a bd
       -0.042966414 0.009647394 -0.0045298464 -0.049526412
0003a0 7e 29 b9 bc 42 38 a6 bb aa b9 6b bd 12 45 c5 3a
       -0.022602793 -0.0050726244 -0.05755011 0.0015050492
0003b0 5f a5 9b 3d b8 db 28 3d 30 52 90 bd 22 5f 46 bd
       0.075999014 0.041225165 -0.07046926 -0.04843057
0003c0 a5 b7 28 bd 6a c8 81 3d 31 d3 28 3b 2e 98 9a 3d
       -0.041190762 0.06337054 0.0025760646 0.07548557
0003d0 bb be 39 bd 1c f9 38 bb f9 a6 43 3d 65 f7 38 bd
       -0.04534791 -0.0028224653 0.04776666 -0.04515781
0003e0 bd a9 25 bd cb 05 cc bb 4c d1 75 bc 0b c1 97 bd
       -0.04044508 -0.0062262765 -0.015003514 -0.07409867
0003f0 6a 70 26 bd 54 88 46 3d d9 ba 69 bd 1f 3e 54 bd
       -0.04063455 0.048469856 -0.057062957 -0.051817056

fc1.bias f4 [50]
000000 7d 3a 1f 3d 6b 83 30 3c d0 89 66 bb 17 b4 43 bd
       0.03887414 0.01077352 -0.0035177357 -0.04777917
000010 7d 57 a9 3b c6 86 a0 3b b3 51 eb 3c 1d 2a 17 3d
       0.0051679 0.0048988787 0.02872548 0.036905397
000020 0c d7 3d bc 00 38 1b bc ce 71 1f bc 33 7f 19 bd
       -0.011586916 -0.009473801 -0.009731723 -0.037474822
000030 67 2d 78 3d 99 c6 2d 3c 27 fc 4a 3d 44 70 27 bd
       0.060590174 0.010606431 0.049556877 -0.04087855
000040 db 28 32 bb 8b eb 1d 3d 40 c8 84 bb 80 ed 78 3d
       -0.0027184996 0.03855471 -0.004052192 0.060773373
000050 a6 81 3d 3d 96 e8 2f 3b f0 82 29 3d 84 6a 62 bc
       0.04626622 0.0026841513 0.041384637 -0.013819341
000060 3b 40 38 bd 02 6f 0d bd 68 ee 28 bd d4 61 4b 3d
       -0.04498313 -0.034529693 -0.041242987 0.049653843
000070 9f 92 cb 3b d6 d1 48 bd 0d cc 28 bd b2 63 54 3d
       0.006212547 -0.04902824 -0.041210223 0.05185289
000080 b9 09 d1 bb eb 4e 19 bd 24 92 50 3d 4f d4 62 bc
       -0.006379333 -0.037428778 0.05092062 -0.013844564
000090 10 d3 44 b8 41 c3 86 3d c9 ab e5 3c 1b f2 6d bd
       -4.692661e-05 0.065802105 0.028036015 -0.058092218
0000a0 22 cf 20 bc 93 a1 fc 3a 28 02 7c bd e2 88 27 bd
       -0.009815009 0.0019274227 -0.061525494 -0.040902026
0000b0 95 b2 6c 3d 37 b5 94 3c 0d 6b 57 3d 6f 21 ae 3b
       0.057787497 0.018152816 0.052592326 0.005314044
0000c0 80 60 8d bb 43 f1 81 bb
       -0.004314482 -0.003965528

fc2.weight f4 [10, 50]
000000 4f 79 68 be fb 99 1c be 85 7a eb bd a4 07 cb bd
       -0.22702526 -0.15293114 -0.11497978 -0.09913567
000010 97 bc c2 3d 9f 93 c4 bc e0 21 04 be 6f a4 d4 bd
       0.09508627 -0.023996172 -0.12903547 -0.10382926
000020 ee 56 69 bc 4b e0 57 bb 1c a6 81 3d 63 ab 29 bd
       -0.014241917 -0.0032940086 0.06330511 -0.041423213
000030 48 2a 71 3e 7e 46 58 3e 9e d7 fe 3d b7 7f 1f bd
       0.23551285 0.2112064 0.124434695 -0.038940158
000040 da c7 ab 3d 63 31 5a be bf d4 f4 bd ec e4 24 be
       0.08387728 -0.21307902 -0.119546406 -0.16102952
000050 4f a3 87 bd d8 9b 23 be fb 79 d0 bd 42 2b 70 be
       -0.066229455 -0.15977418 -0.10179516 -0.23454002
000060 7f b1 19 3e ef b2 c2 3d 40 ee b3 bd df 21 33 bd
       0.15009116 0.09506785 -0.08785677 -0.043733474
000070 66 49 00 3e ad b4 52 3d 26 04 1a be 70 f0 15 3e
       0.12528 0.051441837 -0.15040645 0.14642501
000080 a7 4e 9d 3d 80 1e 0f 3d ca 77 b8 bd 47 02 49 be
       0.07681017 0.034941196 -0.09007223 -0.19629775
000090 92 63 03 be 16 cf 1f be ce d1 43 3d a7 4c bc bc
       -0.12830952 -0.15606341 0.047807507 -0.02298577
0000a0 21 77 86 3d 3d c5 8b 3e 85 de 2c bd 94 b2 20 bd
       0.06565691 0.27298918 -0.0422044 -0.039232805
0000b0 0c da cf 3d 76 d3 32 3d 94 6f 0a 3e f1 39 57 3e
       0.10149011 0.043658696 0.13519126 0.21018197
0000c0 e9 2d e5 bd 4f 8a d5 3d c9 59 b4 3d 3e 8e 22 3e
       -0.11190397 0.10426771 0.08806188 0.15874574
0000d0 57 06 70 be 5f a4 de 3d 9b e8 07 bd 5f a2 32 be
       -0.23439918 0.10871195 -0.033180814 -0.17444752
0000e0 3e ef 03 3d 76 fe 95 3d ce cd 66 bd 22 86 64 bd
       0.03221058 0.07323925 -0.056348614 -0.05579198
0000f0 ae d8 4e 3d af 8e 5a be 68 74 14 3d d6 16 65 bd
       0.05049961 -0.21343492 0.036243826 -0.05592998
000100 a6 9c 34 be 09 10 87 3d 3d 83 e2 bd 37 fd 02 3e
       -0.17637882 0.06594855 -0.11060188 0.12791906
000110 c7 9b bb 3d e0 ad 60 3e 6f 8a b4 3d b4 5f 7a be
       0.091605715 0.21941328 0.088154666 -0.2445057
000120 48 e2 63 be ee a3 3a 3e cd 15 05 3d c8 5a 55 3e
       -0.22254288 0.18226597 0.032491494 0.20835412
000130 13 f4 c5 3d 49 25 3b 3e ea 39 22 be 37 86 84 bd
       0.09665694 0.18275942 -0.15842405 -0.06470912
000140 11 e5 1b 3e 00 47 25 bb 28 88 0e be bf 77 05 be
       0.152241 -0.0025219321 -0.13919127 -0.13033961
000150 8b 8c 03 bd e3 69 23 3e e1 b1 18 3c 93 f8 21 3e
       -0.032116454 0.15958361 0.009319753 0.1581748
000160 48 6a 7d 3d 24 dd 2e be d1 66 0e 3e 10 9b 21 be
       0.061868936 -0.17076546 0.13906409 -0.15781808
000170 ff c5 05 be 18 9c 59 3e b2 ff 45 be e7 2c d3 3c
       -0.13063811 0.21250951 -0.19335821 0.025778247
000180 7f 4d d8 bb e3 31 d9 bd 25 8b b4 bd f4 2e 4a be
       -0.006601035 -0.10605218 -0.08815602 -0.19744474
000190 fb b6 12 be ea ad cf 3d 0b 48 a6 3d 4b a8 26 bd
       -0.14327614 0.10140593 0.0811921 -0.04068784
0001a0 94 0f db 3d 22 93 9b 3c 21 9e 0c 3e 64 87 22 3e
       0.10696331 0.018991057 0.13732196 0.1587196
0001b0 d7 d5 dc 3d 10 73 21 3e 87 ea 0f 3c 00 4f 64 3d
       0.10782974 0.15766549 0.008783943 0.055739403
0001c0 1a b5 3a bd 43 a2 f9 3b df 06 b6 bd 23 06 fd bd
       -0.04558287 0.00761822 -0.08888029 -0.12354686
0001d0 f5 45 8e bd 55 7d e3 3d 5a f3 04 be 8d a9 46 be
       -0.06946937 0.111078896 -0.12983456 -0.19400616
0001e0 5b 26 cb bd 63 07 bb bd 4e b8 05 be 9e 1a 10 3e
       -0.09919425 -0.09132268 -0.13058588 0.14072654
0001f0 19 e1 ee bd ed d2 ba 3c 1e fc 0f be 31 fe 70 bd
       -0.11664028 0.022805655 -0.14061019 -0.058836166
000200 22 ff 46 3b bd 0b f7 bd a1 d6 13 3e 21 14 b2 3d
       0.0030364473 -0.12062786 0.14437343 0.086952455
000210 0e 47 fe bd da 59 13 be 82 bd 21 3e 05 79 67 bd
       -0.12415896 -0.14389744 0.15794948 -0.056511898
000220 49 e2 ec 3d 17 1e 1b 3e fc 3f 98 bd c1 78 8a bd
       0.11566598 0.15148197 -0.07434079 -0.06761313
000230 62 38 23 3d 71 2a 64 3e 7c 6d 00 3e 73 45 ff 3a
       0.039848693 0.22281815 0.12541765 0.0019475654
000240 58 94 d0 bd 66 f2 e0 3d 29 0a cd 3d 3d 14 28 3e
       -0.10184544 0.10983734 0.100117035 0.1641397
000250 e7 31 15 3e cf 12 69 3d 2f 77 b0 3d c4 0f 3d be
       0.14569817 0.056902703 0.086164825 -0.18463045
000260 dd 15 a1 3d 7e 70 21 3d 20 b0 04 bd f1 54 5a bb
       0.07865498 0.03941392 -0.03239453 -0.003331479
000270 65 9d b7 bd 5d 17 57 3e ac a8 eb bd 0d 8c 40 bd
       -0.089655675 0.21005006 -0.11506781 -0.047008563
000280 b7 68 2f 3d e9 91 cd bd 28 45 e1 bd 7b 38 00 3d
       0.042824473 -0.10037596 -0.10999519 0.031303864
000290 c9 1e 5f bd 6d 0b 0d 3e 8e 94 03 3d 86 75 25 3e
       -0.05447272 0.1377389 0.032124095 0.16158113
0002a0 16 3a f4 3d b3 4d c4 bd 80 8e 1e be 26 f5 ea bd
       0.119251415 -0.095851324 -0.15484047 -0.114725396
0002b0 d2 32 92 3d 55 32 0c be d8 9d 0f 3e a0 d8 df bd
       0.071385995 -0.13691075 0.14025056 -0.1092999
0002c0 55 f5 ae bd 4b 7a 35 3e 88 2a c4 bd d7 dc c5 3d
       -0.08542887 0.17722432 -0.09578425 0.096612625
0002d0 5f ef 12 3e 9f 84 15 3e ea ab 01 3e 38 90 c0 bb
       0.14349125 0.14601372 0.12663236 -0.005876567
0002e0 02 af 41 be 34 f1 a4 bd 36 ad bc 3d 08 47 2d 3e
       -0.18914416 -0.08053818 0.09212725 0.16921628
0002f0 e2 a4 13 be 84 1b 43 3e db 72 7b bc f3 02 11 3d
       -0.14418367 0.19053465 -0.015347208 0.035403203
000300 a9 a9 d0 bd 6b 34 a3 bd 1c f9 5d 3d 24 92 00 3e
       -0.1018861 -0.07968982 0.054192647 0.12555748
000310 6e cc 2f 3b 78 ad d2 b8 4d cc d8 3d d0 e9 9e 3d
       0.002682473 -0.000100458914 0.10585842 0.0775944
000320 10 69 0d 3e 1c 17 f0 3d 0b 9a 14 3e ee 8f c1 bd
       0.1380961 0.11723158 0.14511888 -0.094512805
000330 77 1b 85 3d 97 8e 62 be b4 92 57 3e 8c dc c8 3d
       0.06499379 -0.22124706 0.21052057 0.09807691
000340 93 93 a1 3d 83 bf 96 bd b6 dc 36 3e cf 02 3a 3e
       0.07889476 -0.07360747 0.17857632 0.18165134
000350 3f 61 5a bd c5 7e 35 bd 9a 6f 3f bd a1 fe 0c be
       -0.053315397 -0.04431035 -0.04673729 -0.13769008
000360 16 10 38 be 1a 49 36 be 6b 44 3d 3e ab ff 54 3d
       -0.17974886 -0.17801324 0.1848313 0.052001636
000370 1d 74 b9 3d 55 db 01 3e 3c 0c c0 3c 4f 83 91 bd
       0.0905535 0.12681325 0.023443334 -0.07105123
000380 ae e6 63 bd ce b8 1e 38 05 9e e4 3c ce 49 89 3d
       -0.055639915 3.784225e-05 0.02790738 0.0670353
000390 73 52 46 be e5 9a 26 be fd 1d 16 be d2 92 39 be
       -0.1936739 -0.16270025 -0.14659877 -0.18122414
0003a0 6e 07 12 3c c5 62 67 3e f2 3d 5c 3e 02 cd 09 3e
       0.008912904 0.22596271 0.21508005 0.1345711
0003b0 72 8e bf bd 79 30 81 bd b4 4f 13 bd 18 78 05 3d
       -0.09353341 -0.063080736 -0.035964683 0.032585233
0003c0 0b c4 3a be c3 82 5f 3d a1 72 b4 bd 60 8e f2 bd
       -0.18238847 0.054568063 -0.08810926 -0.11843562
0003d0 5a 2d 33 3e ad fb 1d bd f9 fc 2a 3c 9e ac 98 bd
       0.17497769 -0.038570095 0.01043629 -0.07454799
0003e0 5f 97 03 be 2e e6 78 be 95 70 9b 3d f7 d4 40 3d
       -0.12850712 -0.24306557 0.07589833 0.0470781
0003f0 d8 39 b8 bd 8b b7 b4 bd 2c 49 09 3e 68 18 50 bd
       -0.08995408 -0.088240705 0.13406819 -0.050804526

fc2.bias f4 [10]
000000 12 28 5c 3d 00 8a 6c 3d f4 dc 1f bd 56 c4 03 be
       0.05374915 0.057748795 -0.039029077 -0.12867865
000010 cf 64 a4 bd 09 86 db bc 8c 78 7b 3c 10 bb 57 bd
       -0.0802704 -0.026797311 0.015348565 -0.05266863
000020 2c fb 1d 3e eb cb f2 3d
       0.15427846 0.118553005
